/home/coder/miniconda/envs/CR/lib/python3.6/site-packages/torch/serialization.py:434: SourceChangeWarning: source code of class 'language_model.WordEmbedding' has changed. you can retrieve the original source code by accessing the object's source attribute or set `torch.nn.Module.dump_patches = True` and use the patch tool to revert the changes.
  warnings.warn(msg, SourceChangeWarning)
2023-10-27 08:53:33,954 INFO     >>>The net is:
2023-10-27 08:53:33,955 INFO     BAN_Model(
  (w_emb): WordEmbedding(
    (emb): Embedding(1178, 300, padding_idx=1177)
    (emb_): Embedding(1178, 300, padding_idx=1177)
    (dropout): Dropout(p=0.0)
  )
  (q_emb): QuestionEmbedding(
    (rnn): GRU(600, 1024, batch_first=True)
  )
  (close_att): BiAttention(
    (logits): BCNet(
      (v_net): FCNet(
        (main): Sequential(
          (0): Dropout(p=0.2)
          (1): Linear(in_features=64, out_features=3072, bias=True)
          (2): ReLU()
        )
      )
      (q_net): FCNet(
        (main): Sequential(
          (0): Dropout(p=0.2)
          (1): Linear(in_features=1024, out_features=3072, bias=True)
          (2): ReLU()
        )
      )
      (dropout): Dropout(p=0.5)
      (p_net): AvgPool1d(kernel_size=(3,), stride=(3,), padding=(0,))
    )
  )
  (close_resnet): BiResNet(
    (b_net): ModuleList(
      (0): BCNet(
        (v_net): FCNet(
          (main): Sequential(
            (0): Dropout(p=0.2)
            (1): Linear(in_features=64, out_features=1024, bias=True)
            (2): ReLU()
          )
        )
        (q_net): FCNet(
          (main): Sequential(
            (0): Dropout(p=0.2)
            (1): Linear(in_features=1024, out_features=1024, bias=True)
            (2): ReLU()
          )
        )
        (dropout): Dropout(p=0.5)
      )
      (1): BCNet(
        (v_net): FCNet(
          (main): Sequential(
            (0): Dropout(p=0.2)
            (1): Linear(in_features=64, out_features=1024, bias=True)
            (2): ReLU()
          )
        )
        (q_net): FCNet(
          (main): Sequential(
            (0): Dropout(p=0.2)
            (1): Linear(in_features=1024, out_features=1024, bias=True)
            (2): ReLU()
          )
        )
        (dropout): Dropout(p=0.5)
      )
    )
    (q_prj): ModuleList(
      (0): FCNet(
        (main): Sequential(
          (0): Dropout(p=0.2)
          (1): Linear(in_features=1024, out_features=1024, bias=True)
        )
      )
      (1): FCNet(
        (main): Sequential(
          (0): Dropout(p=0.2)
          (1): Linear(in_features=1024, out_features=1024, bias=True)
        )
      )
    )
    (c_prj): ModuleList()
  )
  (close_classifier): SimpleClassifier(
    (main): Sequential(
      (0): Linear(in_features=1024, out_features=2048, bias=True)
      (1): ReLU()
      (2): Dropout(p=0.5, inplace)
      (3): Linear(in_features=2048, out_features=56, bias=True)
    )
  )
  (open_att): BiAttention(
    (logits): BCNet(
      (v_net): FCNet(
        (main): Sequential(
          (0): Dropout(p=0.2)
          (1): Linear(in_features=64, out_features=3072, bias=True)
          (2): ReLU()
        )
      )
      (q_net): FCNet(
        (main): Sequential(
          (0): Dropout(p=0.2)
          (1): Linear(in_features=1024, out_features=3072, bias=True)
          (2): ReLU()
        )
      )
      (dropout): Dropout(p=0.5)
      (p_net): AvgPool1d(kernel_size=(3,), stride=(3,), padding=(0,))
    )
  )
  (open_resnet): BiResNet(
    (b_net): ModuleList(
      (0): BCNet(
        (v_net): FCNet(
          (main): Sequential(
            (0): Dropout(p=0.2)
            (1): Linear(in_features=64, out_features=1024, bias=True)
            (2): ReLU()
          )
        )
        (q_net): FCNet(
          (main): Sequential(
            (0): Dropout(p=0.2)
            (1): Linear(in_features=1024, out_features=1024, bias=True)
            (2): ReLU()
          )
        )
        (dropout): Dropout(p=0.5)
      )
      (1): BCNet(
        (v_net): FCNet(
          (main): Sequential(
            (0): Dropout(p=0.2)
            (1): Linear(in_features=64, out_features=1024, bias=True)
            (2): ReLU()
          )
        )
        (q_net): FCNet(
          (main): Sequential(
            (0): Dropout(p=0.2)
            (1): Linear(in_features=1024, out_features=1024, bias=True)
            (2): ReLU()
          )
        )
        (dropout): Dropout(p=0.5)
      )
    )
    (q_prj): ModuleList(
      (0): FCNet(
        (main): Sequential(
          (0): Dropout(p=0.2)
          (1): Linear(in_features=1024, out_features=1024, bias=True)
        )
      )
      (1): FCNet(
        (main): Sequential(
          (0): Dropout(p=0.2)
          (1): Linear(in_features=1024, out_features=1024, bias=True)
        )
      )
    )
    (c_prj): ModuleList()
  )
  (open_classifier): SimpleClassifier(
    (main): Sequential(
      (0): Linear(in_features=1024, out_features=2048, bias=True)
      (1): ReLU()
      (2): Dropout(p=0.5, inplace)
      (3): Linear(in_features=2048, out_features=431, bias=True)
    )
  )
  (typeatt): typeAttention(
    (w_emb): WordEmbedding(
      (emb): Embedding(1178, 300, padding_idx=1177)
      (dropout): Dropout(p=0.0)
    )
    (q_emb): QuestionEmbedding(
      (rnn): GRU(300, 1024, batch_first=True)
    )
    (q_final): QuestionAttention(
      (tanh_gate): Linear(in_features=1324, out_features=1024, bias=True)
      (sigmoid_gate): Linear(in_features=1324, out_features=1024, bias=True)
      (attn): Linear(in_features=1024, out_features=1, bias=True)
    )
    (f_fc1): Linear(in_features=1024, out_features=2048, bias=True)
    (f_fc2): Linear(in_features=2048, out_features=1024, bias=True)
    (f_fc3): Linear(in_features=1024, out_features=1024, bias=True)
  )
  (maml): SimpleCNN(
    (conv1): Conv2d(1, 64, kernel_size=(3, 3), stride=(2, 2), padding=(1, 1))
    (conv1_bn): BatchNorm2d(64, eps=1e-05, momentum=0.05, affine=True, track_running_stats=True)
    (conv2): Conv2d(64, 64, kernel_size=(3, 3), stride=(2, 2), padding=(1, 1))
    (conv2_bn): BatchNorm2d(64, eps=1e-05, momentum=0.05, affine=True, track_running_stats=True)
    (conv3): Conv2d(64, 64, kernel_size=(3, 3), stride=(2, 2), padding=(1, 1))
    (conv3_bn): BatchNorm2d(64, eps=1e-05, momentum=0.05, affine=True, track_running_stats=True)
    (conv4): Conv2d(64, 64, kernel_size=(3, 3), stride=(2, 2), padding=(1, 1))
    (conv4_bn): BatchNorm2d(64, eps=1e-05, momentum=0.05, affine=True, track_running_stats=True)
  )
)
2023-10-27 08:53:33,958 INFO     >>>The args is:
2023-10-27 08:53:33,958 INFO     Namespace(activation='relu', ae_alpha=0.001, ae_model_path='pretrained_ae.pth', attention='BAN', autoencoder=False, batch_size=64, cat=True, clip_norm=0.25, data_dir='/home/coder/projects/Med-VQA/data', details='original ', device=device(type=
…
